…
------------------------------------------------------ LOADING MODELS -----------------------------------------------------
Loading Time: 0:00:00
Model: "model"
__________________________________________________________________________________________________
 Layer (type)                   Output Shape         Param #     Connected to                     
==================================================================================================
 input (InputLayer)             [(None, 2305)]       0           []                               
                                                                                                  
 hidden1_1792 (Dense)           (None, 1792)         4132352     ['input[0][0]']                  
                                                                                                  
 activation1_swish (Activation)  (None, 1792)        0           ['hidden1_1792[0][0]']           
                                                                                                  
 dropout1_0.3 (Dropout)         (None, 1792)         0           ['activation1_swish[0][0]']      
                                                                                                  
 hidden2_512 (Dense)            (None, 512)          918016      ['dropout1_0.3[0][0]']           
                                                                                                  
 activation2_swish (Activation)  (None, 512)         0           ['hidden2_512[0][0]']            
                                                                                                  
 dropout2_0.3 (Dropout)         (None, 512)          0           ['activation2_swish[0][0]']      
                                                                                                  
 hidden3_512 (Dense)            (None, 512)          262656      ['dropout2_0.3[0][0]']           
                                                                                                  
 activation3_swish (Activation)  (None, 512)         0           ['hidden3_512[0][0]']            
                                                                                                  
 dropout3_0.3 (Dropout)         (None, 512)          0           ['activation3_swish[0][0]']      
                                                                                                  
 dense_6 (Dense)                (None, 112)          57456       ['dropout3_0.3[0][0]']           
                                                                                                  
 output_bias_7 (Dense)          (None, 7)            3591        ['dropout3_0.3[0][0]']           
                                                                                                  
 output_leaf_nodes_16 (Dense)   (None, 16)           8208        ['dropout3_0.3[0][0]']           
                                                                                                  
 output_combined (Concatenate)  (None, 135)          0           ['dense_6[0][0]',                
                                                                  'output_bias_7[0][0]',          
                                                                  'output_leaf_nodes_16[0][0]']   
                                                                                                  
==================================================================================================
…
